…
n","*   Attention (보통 낮은 해상도의 블록에서만 사용)\n","*   timestep에 대한 조건부 설정\n","*   학습 가능한 파라미터가 있는 Downsampling and upsampling blocks\n","\n","Let's create and inspect a UNet2DModel:\n","\n"]},{"cell_type":"code","execution_count":null,"metadata":{"colab":{"base_uri":"https://localhost:8080/"},"id":"YWOGYGj3U7tR","outputId":"0faa563d-cfaa-4219-ab9b-ad496beb3430","executionInfo":{"status":"ok","timestamp":1719720971301,"user_tz":-540,"elapsed":344,"user":{"displayName":"JIYOON OH","userId":"10607774071577451844"}}},"outputs":[{"output_type":"stream","name":"stdout","text":["UNet2DModel(\n","  (conv_in): Conv2d(1, 32, kernel_size=(3, 3), stride=(1, 1), padding=(1, 1))\n","  (time_proj): Timesteps()\n","  (time_embedding): TimestepEmbedding(\n","    (linear_1): Linear(in_features=32, out_features=128, bias=True)\n","    (act): SiLU()\n","    (linear_2): Linear(in_features=128, out_features=128, bias=True)\n","  )\n","  (down_blocks): ModuleList(\n","    (0): DownBlock2D(\n","      (resnets): ModuleList(\n","        (0-1): 2 x ResnetBlock2D(\n","          (norm1): GroupNorm(32, 32, eps=1e-05, affine=True)\n","          (conv1): Conv2d(32, 32, kernel_size=(3, 3), stride=(1, 1), padding=(1, 1))\n","          (time_emb_proj): Linear(in_features=128, out_features=32, bias=True)\n","          (norm2): GroupNorm(32, 32, eps=1e-05, affine=True)\n","          (dropout): Dropout(p=0.0, inplace=False)\n","          (conv2): Conv2d(32, 32, kernel_size=(3, 3), stride=(1, 1), padding=(1, 1))\n","          (nonlinearity): SiLU()\n","        )\n","      )\n","      (downsamplers): ModuleList(\n","        (0): Downsample2D(\n","          (conv): Conv2d(32, 32, kernel_size=(3, 3), stride=(2, 2), padding=(1, 1))\n","        )\n","      )\n","    )\n","    (1): AttnDownBlock2D(\n","      (attentions): ModuleList(\n","        (0-1): 2 x Attention(\n","          (group_norm): GroupNorm(32, 64, eps=1e-05, affine=True)\n","          (to_q): Linear(in_features=64, out_features=64, bias=True)\n","          (to_k): Linear(in_features=64, out_features=64, bias=True)\n","          (to_v): Linear(in_features=64, out_features=64, bias=True)\n","          (to_out): ModuleList(\n","            (0): Linear(in_features=64, out_features=64, bias=True)\n","            (1): Dropout(p=0.0, inplace=False)\n","          )\n","        )\n","      )\n","      (resnets): ModuleList(\n","        (0): ResnetBlock2D(\n","          (norm1): GroupNorm(32, 32, eps=1e-05, affine=True)\n","          (conv1): Conv2d(32, 64, kernel_size=(3, 3), stride=(1, 1), padding=(1, 1))\n","          (time_emb_proj): Linear(in_features=128, out_features=64, bias=True)\n","          (norm2): GroupNorm(32, 64, eps=1e-05, affine=True)\n","          (dropout): Dropout(p=0.0, inplace=False)\n","          (conv2): Conv2d(64, 64, kernel_size=(3, 3), stride=(1, 1), padding=(1, 1))\n","          (nonlinearity): SiLU()\n","          (conv_shortcut): Conv2d(32, 64, kernel_size=(1, 1), stride=(1, 1))\n","        )\n","        (1): ResnetBlock2D(\n","          (norm1): GroupNorm(32, 64, eps=1e-05, affine=True)\n","          (conv1): Conv2d(64, 64, kernel_size=(3, 3), stride=(1, 1), padding=(1, 1))\n","          (time_emb_proj): Linear(in_features=128, out_features=64, bias=True)\n","          (norm2): GroupNorm(32, 64, eps=1e-05, affine=True)\n","          (dropout): Dropout(p=0.0, inplace=False)\n","          (conv2): Conv2d(64, 64, kernel_size=(3, 3), stride=(1, 1), padding=(1, 1))\n","          (nonlinearity): SiLU()\n","        )\n","      )\n","      (downsamplers): ModuleList(\n","        (0): Downsample2D(\n","          (conv): Conv2d(64, 64, kernel_size=(3, 3), stride=(2, 2), padding=(1, 1))\n","        )\n","      )\n","    )\n","    (2): AttnDownBlock2D(\n","      (attentions): ModuleList(\n","        (0-1): 2 x Attention(\n","          (group_norm): GroupNorm(32, 64, eps=1e-05, affine=True)\n","          (to_q): Linear(in_features=64, out_features=64, bias=True)\n","          (to_k): Linear(in_features=64, out_features=64, bias=True)\n","          (to_v): Linear(in_features=64, out_features=64, bias=True)\n","          (to_out): ModuleList(\n","            (0): Linear(in_features=64, out_features=64, bias=True)\n","            (1): Dropout(p=0.0, inplace=False)\n","          )\n","        )\n","      )\n","      (resnets): ModuleList(\n","        (0-1): 2 x ResnetBlock2D(\n","          (norm1): GroupNorm(32, 64, eps=1e-05, affine=True)\n","          (conv1): Conv2d(64, 64, kernel_size=(3, 3), stride=(1, 1), padding=(1, 1))\n","          (time_emb_proj): Linear(in_features=128, out_features=64, bias=True)\n","          (norm2): GroupNorm(32, 64, eps=1e-05, affine=True)\n","          (dropout): Dropout(p=0.0, inplace=False)\n","          (conv2): Conv2d(64, 64, kernel_size=(3, 3), stride=(1, 1), padding=(1, 1))\n","          (nonlinearity): SiLU()\n","        )\n","      )\n","    )\n","  )\n","  (up_blocks): ModuleList(\n","    (0): AttnUpBlock2D(\n","      (attentions): ModuleList(\n","        (0-2): 3 x Attention(\n","          (group_norm): GroupNorm(32, 64, eps=1e-05, affine=True)\n","          (to_q): Linear(in_features=64, out_features=64, bias=True)\n","          (to_k): Linear(in_features=64, out_features=64, bias=True)\n","          (to_v): Linear(in_features=64, out_features=64, bias=True)\n","          (to_out): ModuleList(\n","            (0): Linear(in_features=64, out_features=64, bias=True)\n","            (1): Dropout(p=0.0, inplace=False)\n","          )\n","        )\n","      )\n","      (resnets): ModuleList(\n","        (0-2): 3 x ResnetBlock2D(\n","          (norm1): GroupNorm(32, 128, eps=1e-05, affine=True)\n","          (conv1): Conv2d(128, 64, kernel_size=(3, 3), stride=(1, 1), padding=(1, 1))\n","          (time_emb_proj): Linear(in_features=128, out_features=64, bias=True)\n","          (norm2): GroupNorm(32, 64, eps=1e-05, affine=True)\n","          (dropout): Dropout(p=0.0, inplace=False)\n","          (conv2): Conv2d(64, 64, kernel_size=(3, 3), stride=(1, 1), padding=(1, 1))\n","          (nonlinearity): SiLU()\n","          (conv_shortcut): Conv2d(128, 64, kernel_size=(1, 1), stride=(1, 1))\n","        )\n","      )\n","      (upsamplers): ModuleList(\n","        (0): Upsample2D(\n","          (conv): Conv2d(64, 64, kernel_size=(3, 3), stride=(1, 1), padding=(1, 1))\n","        )\n","      )\n","    )\n","    (1): AttnUpBlock2D(\n","      (attentions): ModuleList(\n","        (0-2): 3 x Attention(\n","          (group_norm): GroupNorm(32, 64, eps=1e-05, affine=True)\n","          (to_q): Linear(in_features=64, out_features=64, bias=True)\n","          (to_k): Linear(in_features=64, out_features=64, bias=True)\n","          (to_v): Linear(in_features=64, out_features=64, bias=True)\n","          (to_out): ModuleList(\n","            (0): Linear(in_features=64, out_features=64, bias=True)\n","            (1): Dropout(p=0.0, inplace=False)\n","          )\n","        )\n","      )\n","      (resnets): ModuleList(\n","        (0-1): 2 x ResnetBlock2D(\n","          (norm1): GroupNorm(32, 128, eps=1e-05, affine=True)\n","          (conv1): Conv2d(128, 64, kernel_size=(3, 3), stride=(1, 1), padding=(1, 1))\n","          (time_emb_proj): Linear(in_features=128, out_features=64, bias=True)\n","          (norm2): GroupNorm(32, 64, eps=1e-05, affine=True)\n","          (dropout): Dropout(p=0.0, inplace=False)\n","          (conv2): Conv2d(64, 64, kernel_size=(3, 3), stride=(1, 1), padding=(1, 1))\n","          (nonlinearity): SiLU()\n","          (conv_shortcut): Conv2d(128, 64, kernel_size=(1, 1), stride=(1, 1))\n","        )\n","        (2): ResnetBlock2D(\n","          (norm1): GroupNorm(32, 96, eps=1e-05, affine=True)\n","          (conv1): Conv2d(96, 64, kernel_size=(3, 3), stride=(1, 1), padding=(1, 1))\n","          (time_emb_proj): Linear(in_features=128, out_features=64, bias=True)\n","          (norm2): GroupNorm(32, 64, eps=1e-05, affine=True)\n","          (dropout): Dropout(p=0.0, inplace=False)\n","          (conv2): Conv2d(64, 64, kernel_size=(3, 3), stride=(1, 1), padding=(1, 1))\n","          (nonlinearity): SiLU()\n","          (conv_shortcut): Conv2d(96, 64, kernel_size=(1, 1), stride=(1, 1))\n","        )\n","      )\n","      (upsamplers): ModuleList(\n","        (0): Upsample2D(\n","          (conv): Conv2d(64, 64, kernel_size=(3, 3), stride=(1, 1), padding=(1, 1))\n","        )\n","      )\n","    )\n","    (2): UpBlock2D(\n","      (resnets): ModuleList(\n","        (0): ResnetBlock2D(\n","          (norm1): GroupNorm(32, 96, eps=1e-05, affine=True)\n","          (conv1): Conv2d(96, 32, kernel_size=(3, 3), stride=(1, 1), padding=(1, 1))\n","          (time_emb_proj): Linear(in_features=128, out_features=32, bias=True)\n","          (norm2): GroupNorm(32, 32, eps=1e-05, affine=True)\n","          (dropout): Dropout(p=0.0, inplace=False)\n","          (conv2): Conv2d(32, 32, kernel_size=(3, 3), stride=(1, 1), padding=(1, 1))\n","          (nonlinearity): SiLU()\n","          (conv_shortcut): Conv2d(96, 32, kernel_size=(1, 1), stride=(1, 1))\n","        )\n","        (1-2): 2 x ResnetBlock2D(\n","          (norm1): GroupNorm(32, 64, eps=1e-05, affine=True)\n","          (conv1): Conv2d(64, 32, kernel_size=(3, 3), stride=(1, 1), padding=(1, 1))\n","          (time_emb_proj): Linear(in_features=128, out_features=32, bias=True)\n","          (norm2): GroupNorm(32, 32, eps=1e-05, affine=True)\n","          (dropout): Dropout(p=0.0, inplace=False)\n","          (conv2): Conv2d(32, 32, kernel_size=(3, 3), stride=(1, 1), padding=(1, 1))\n","          (nonlinearity): SiLU()\n","          (conv_shortcut): Conv2d(64, 32, kernel_size=(1, 1), stride=(1, 1))\n","        )\n","      )\n","    )\n","  )\n","  (mid_block): UNetMidBlock2D(\n","    (attentions): ModuleList(\n","      (0): Attention(\n","        (group_norm): GroupNorm(32, 64, eps=1e-05, affine=True)\n","        (to_q): Linear(in_features=64, out_features=64, bias=True)\n","        (to_k): Linear(in_features=64, out_features=64, bias=True)\n","        (to_v): Linear(in_features=64, out_features=64, bias=True)\n","        (to_out): ModuleList(\n","          (0): Linear(in_features=64, out_features=64, bias=True)\n","          (1): Dropout(p=0.0, inplace=False)\n","        )\n","      )\n","    )\n","    (resnets): ModuleList(\n","      (0-1): 2 x ResnetBlock2D(\n","        (norm1): GroupNorm(32, 64, eps=1e-05, affine=True)\n","        (conv1): Conv2d(64, 64, kernel_size=(3, 3), stride=(1, 1), padding=(1, 1))\n","        (time_emb_proj): Linear(in_features=128, out_features=64, bias=True)\n","        (norm2): GroupNorm(32, 64, eps=1e-05, affine=True)\n","        (dropout): Dropout(p=0.0, inplace=False)\n","        (conv2): Conv2d(64, 64, kernel_size=(3, 3), stride=(1, 1), padding=(1, 1))\n","        (nonlinearity): SiLU()\n","      )\n","    )\n","  )\n","  (conv_norm_out): GroupNorm(32, 32, eps=1e-05, affine=True)\n","  (conv_act): SiLU()\n","  (conv_out): Conv2d(32, 1, kernel_size=(3, 3), stride=(1, 1), padding=(1, 1))\n",")\n"]}],"source":["model = UNet2DModel(\n","    sample_size=28,           # 목표 이미지 해상도\n","    in_channels=1,            # 입력 채널 수, RGB 이미지의 경우 3\n","    out_channels=1,           # 출력 채널 수\n","    layers_per_block=2,       # UNet 블록당 사용할 ResNet 레이어 수\n","    block_out_channels=(32, 64, 64), # 기본 UNet 예제와 대략 일치\n","    down_block_types=
…
